save/mcarcontinues/actor.pkl (torch_old, 7053 bytes, 3 tensors)

weight f4 [100, 2]
0.012755962 2.8483813 0.72916955 -1.9121188 0.96389484 -3.9029155 0.746826 -5.159097
0.54587275 -1.7877191 0.37736928 -3.4598658 0.8245792 -6.3698606 -1.281459 5.5308204
0.7802822 -4.990541 0.26585615 -1.8892918 -0.89782465 2.5259924 0.760473 -4.199942
0.8214434 -4.621517 0.6644622 -1.9618989 -0.20333128 -2.10192 0.5780676 -2.8443978
0.80336803 -2.4150615 0.42130777 -2.232857 -0.37683746 4.556196 0.13618769 1.9009067
-0.70325357 4.957629 0.82723695 -6.1762996 -1.0155047 5.843429 -0.2343777 1.3926073
0.25722578 -3.940299 1.2416431 -6.09756 0.15898032 -2.2729049 -0.85621554 4.57222
0.4973417 -4.9107056 -0.2862485 1.5448107 0.22360303 -1.9865015 -0.10029936 -2.5723407
0.78629375 -3.838751 -1.0396965 3.6967907 -0.5383211 5.3375635 -0.5086645 5.4776607
-0.2393908 3.9191523 0.3555426 -2.2759552 -0.19364505 2.7550554 0.22455047 2.384672
0.42065912 -4.550095 0.39036107 -3.0879998 0.0916014 4.628418 -0.18554196 3.1751676
-0.123522855 3.2212503 1.1258509 -4.6363597 0.5019555 1.5338715 0.13120699 -3.661828
-0.07680305 5.0168552 -0.1591235 -1.9447951 1.0445435 -5.313419 0.6876277 -2.362074
0.17466806 -3.9941065 -0.4645883 4.8232155 0.17069171 5.5236893 -0.031166326 -2.8477607
-0.44760397 2.2477312 0.29360387 -2.5820432 0.40607688 -4.3845325 0.32657775 -4.8268275
-0.40658408 3.294921 -0.99234194 4.016619 0.54506177 -2.956047 0.02045078 -2.68761
0.66408455 -3.9013662 0.07460893 -3.0677493 0.7588667 -2.8837988 0.34624302 -2.000171
0.6186377 -5.146756 -0.5538525 4.144792 0.6147338 -4.122496 -0.9488684 4.1652484
-0.802494 3.0979018 -0.5498417 4.080647 0.7826894 -4.7498364 -0.6794895 2.7800608
-0.8555731 3.7490666 -1.307661 6.9708714 -0.75915956 3.706511 -0.958593 4.3184724
-1.0365169 5.6619573 -1.1966351 4.5960464 0.06094339 4.378524 -0.08845083 3.3023481
0.017407622 -3.2786343 0.07841495 2.519341 -0.5148816 4.72099 0.4475927 -2.435685
0.16081339 -4.8940625 0.78120255 -3.7383235 1.0701293 -5.1723666 1.1229165 -3.741536
-0.12594648 -2.3972824 -0.019629793 -3.469359 0.92760855 -3.1574953 -0.45005733 5.4527636
1.0200088 -3.7997775 -0.42019406 -2.2762256 0.2577578 -3.8368979 -0.8785042 5.5125556
00000000: 62fe 503c e14b 3640 dbaa 3a3f 4fc0 f4bf
00000010: d0c1 763f 5ec9 79c0 fd2f 3f3f 5317 a5c0
00000020: 51be 0b3f fbd3 e4bf 8c36 c13e 716e 5dc0
00000030: 9f17 533f e6d5 cbc0 d906 a4bf 7bfc b040
00000040: 93c0 473f 83b2 9fc0 4c1e 883e 50d4 f1bf
00000050: d6d7 65bf dca9 2140 5cae 423f ed65 86c0
00000060: 1d4a 523f 78e3 93c0 321a 2a3f 811f fbbf
00000070: 1336 50be db85 06c0 3dfc 133f 9d0a 36c0
00000080: 87a9 4d3f 5e90 1ac0 a7b5 d73e 21e7 0ec0
00000090: d7f0 c0be 5ccc 9140 c974 0b3e e950 f33f
000000a0: 6d08 34bf e6a4 9e40 cdc5 533f 3fa4 c5c0
000000b0: 0ffc 81bf 5ffd ba40 b500 70be f540 b23f
000000c0: 19b3 833e dc2d 7cc0 29ee 9e3f 361f c3c0
000000d0: bdcb 223e 4677 11c0 f130 5bbf a04f 9240
000000e0: 92a3 fe3e 8024 9dc0 2a8f 92be 5bbc c53f
000000f0: 31f8 643e ae45 febf c069 cdbd 3ba1 24c0
00000100: 8c4a 493f 19ae 75c0 c614 85bf 3898 6c40
00000110: 69cf 09bf 52cd aa40 d637 02bf ff48 af40
00000120: dd22 75be 64d3 7a40 ae09 b63e 40a9 11c0
00000130: e34a 46be d452 3040 8ff0 653e 779e 1840
00000140: a260 d73e 619a 91c0 68dd c73e caa1 45c0
00000150: 8499 bb3d 001c 9440 b6fe 3dbe f235 4b40
00000160: 8df9 fcbd f728 4e40 e21b 903f 0f5d 94c0
00000170: 2880 003f e755 c43f 205b 063e 645b 6ac0
00000180: eb4a 9dbd 148a a040 45f1 22be 0cef f8bf
00000190: 9ab3 853f 8707 aac0 5e08 303f 382c 17c0
000001a0: 2fdc 323e 719f 7fc0 85de edbe c857 9a40
000001b0: cfc9 2e3e 10c2 b040 8650 ffbc b641 36c0
000001c0: 592c e5be d4da 0f40 3f53 963e 3240 25c0
000001d0: 4fe9 cf3e 174e 8cc0 3335 a73e 5f75 9ac0
000001e0: ca2b d0be fcdf 5240 1f0a 7ebf 2588 8040
000001f0: 2b89 0b3f e02f 3dc0 6588 a73c cd01 2cc0
00000200: 7201 2a3f fcaf 79c0 91cc 983d 0156 44c0
00000210: 1745 423f 2990 38c0 c446 b13e cd02 00c0
00000220: 0a5f 1e3f 3ab2 a4c0 47c9 0dbf 23a2 8440
00000230: 325f 1d3f 7deb 83c0 0ae9 72bf b749 8540
00000240: 3f70 4dbf 0644 4640 6dc2 0cbf a994 8240
00000250: 555e 483f a9fe 97c0 06f3 2dbf 84ec 3140
00000260: d706 5bbf b5f0 6f40 7061 a7bf 6111 df40
00000270: 4858 42bf 7a37 6d40 5a66 75bf ed30 8a40
00000280: 96ac 84bf c12e b540 572b 99bf d012 9340
00000290: c79f 793d de1c 8c40 b525 b5bd ac59 5340
000002a0: 6e9a 8e3c 25d5 51c0 0498 a03d e23c 2140
000002b0: 48cf 03bf 5a12 9740 df2a e53e 43e2 1bc0
000002c0: 44ac 243e 299c 9cc0 e4fc 473f b140 6fc0
000002d0: fff9 883f 0784 a5c0 babb 8f3f 5375 6fc0
000002e0: 1df8 00be 136d 19c0 a9ce a0bc fa09 5ec0
000002f0: c177 6d3f 6714 4ac0 ea6d e6be 0a7d ae40
00000300: a68f 823f 8e2f 73c0 ad23 d7be aead 11c0
00000310: d5f8 833e bc8f 75c0 a7e5 60bf db66 b040

bias f4 [100]
-0.24838276 0.44477302 0.23436552 0.05854866 0.12101287 0.01968649 0.035558082 -0.21834141
0.0533266 0.19388665 -0.21297656 0.0464449 0.09189818 0.18294592 0.21450633 0.08279455
0.3155233 0.16259024 0.106405824 0.049738657 -0.010234252 0.046175543 -0.1226983 -0.44445193
-0.030421652 0.21001746 0.10268264 -0.18399502 -0.05915572 -0.13160454 0.40600413 0.065630384
0.11965956 -0.2260011 -0.0019933532 0.06503823 0.3976199 0.21279895 -0.061935045 -0.17883645
-0.08270459 0.12668213 0.121238194 0.08640183 0.13489808 0.22600205 0.1833383 -0.18514204
0.16041154 0.30138475 0.15035555 0.3778467 -0.091991164 0.065876395 0.1875201 -0.1263625
-0.11482167 0.22428314 -0.025940504 -0.13747682 0.039944097 -0.15748146 0.3395284 -0.04810514
0.03413719 0.085663274 0.27263972 0.37791792 0.0071892007 -0.0035853747 0.0008807345 -0.13201216
-0.19392496 -0.025050914 0.08935229 -0.23756345 -0.19562908 -0.18963136 -0.11106972 -0.13989814
-0.12249889 -0.21145359 0.17316383 0.11388523 -0.13038668 -0.21932156 0.056558497 0.3336088
-0.12343117 0.1452802 0.1414976 0.23011504 0.37053797 -0.09167629 0.31987417 0.08508626
0.19583018 0.10471678 -0.05840461 -0.07859836
00000000: 0d58 7ebe 4ab9 e33e 84fd 6f3e b8d0 6f3d
00000010: 98d5 f73d 9045 a13c 5aa5 113d e494 5fbe
00000020: fe6c 5a3d 398a 463e 8716 5abe 023d 3e3d
00000030: 1d35 bc3d 2d56 3b3e 8ca7 5b3e 3090 a93d
00000040: 458c a13e 0e7e 263e 4ceb d93d c3ba 4b3d
00000050: 90ad 27bc 9122 3d3d 3f49 fbbd 348f e3be
00000060: d436 f9bc d10e 573e 474b d23d 3169 3cbe
00000070: 454d 72bd 57c3 06be c6df cf3e 3969 863d
00000080: 1210 f53d d56c 67be eba2 02bb c332 853d
00000090: d694 cb3e f8e7 593e 9aaf 7dbd e720 37be
000000a0: 0661 a9bd f6b8 013e bb4b f83d 71f3 b03d
000000b0: b922 0a3e 156d 673e 09bd 3b3e e095 3dbe
000000c0: ec42 243e 1a4f 9a3e cef6 193e 1f75 c13e
000000d0: dd65 bcbd 34ea 863d 4505 403e 2c65 01be
000000e0: a027 ebbd 7baa 653e 2e81 d4bc b9c6 0cbe
000000f0: 6c9c 233d d242 21be abd6 ad3e e509 45bd
00000100: 70d3 0b3d 3a70 af3d 6f97 8b3e 757e c13e
00000110: 6393 eb3b 9bf8 6abb 17e1 663a 322e 07be
00000120: 4494 46be 9337 cdbc 55fe b63d d543 73be
00000130: fd52 48be b92e 42be 8578 e3bd 7541 0fbe
00000140: b3e0 fabd 4a87 58be dc51 313e a93c e93d
00000150: 1684 05be d595 60be e2a9 673d c6ce aa3e
00000160: 7bc9 fcbd 55c4 143e bfe4 103e 47a3 6b3e
00000170: 27b7 bd3e c7c0 bbbd 8cc6 a33e b541 ae3d
00000180: b587 483e c075 d63d ac39 6fbd 2df8 a0bd

weight f4 [1, 100]
0.1767494 -0.22937943 -0.35181838 -1.4160317 -0.24692507 -0.388191 -1.1100194 0.62761533
-0.53168553 -0.23912644 0.33664677 -0.31421933 -0.59970844 -0.24688126 -0.16292903 -0.22281891
-0.13762064 -0.1442417 0.42380574 0.27869523 0.3811651 -2.3364377 1.4832951 0.040654864
-0.7320962 -2.375511 -0.17950214 0.45687225 -0.33734566 0.09021054 -0.070266396 -0.22895123
-0.43028656 0.2673348 2.0590177 0.63082856 1.2748815 -0.28078663 0.44539073 0.142158
-0.289626 -0.22983187 0.5211339 0.46685115 0.23178357 -0.5335123 0.12830961 -0.3506978
2.533614 -0.16423175 -0.82227176 -0.1837473 -0.49848145 1.9564769 1.9942778 -0.20995173
0.2787985 -0.25672147 -2.099047 -1.7985743 0.73905545 0.36456352 -0.22954525 -0.18890697
-0.24224891 -0.29124448 -0.19239926 -0.17383748 -1.556887 0.26383483 -0.2747791 0.27331346
0.2300053 0.2625418 -0.77895564 0.1730125 0.7505427 2.6471007 0.35147682 0.487478
0.76250225 0.5148851 0.91168517 1.0977482 -0.23780881 0.24363658 0.39913455 -0.20869815
-2.647501 -0.8489669 -0.42042795 -0.40110704 -0.19174421 -0.5288434 -0.37856615 0.93699914
-1.1373615 -0.19303407 -0.2998644 1.3030375
00000000: cbfd 343e 71e2 6abe 8a21 b4be 8740 b5bf
00000010: edd9 7cbe f9c0 c6be 1e15 8ebf 66ab 203f
00000020: 8b1c 08bf 90dd 74be f75c ac3e 5be1 a0be
00000030: 7e86 19bf 71ce 7cbe ded6 26be a42a 64be
00000040: 6dec 0cbe 19b4 13be 11fd d83e 24b1 8e3e
00000050: 1228 c33e 3288 15c0 9ddc bd3f b785 263d
00000060: a86a 3bbf 5f08 18c0 69cf 37be 29eb e93e
00000070: 92b8 acbe 4ec0 b83d d4e7 8fbd 3172 6abe
00000080: 854e dcbe 1be0 883e f2c6 0340 fb7d 213f
00000090: 512f a33f 44c3 8fbe 410a e43e de91 113e
000000a0: dc49 94be 0c59 6bbe 0869 053f 1d07 ef3e
000000b0: ac58 6d3e 4394 08bf 9863 033e a98e b3be
000000c0: bb26 2240 5e2c 28be 6780 52bf 4128 3cbe
000000d0: f638 ffbe d66d fa3f 7f44 ff3f 96fd 56be
000000e0: adbe 8e3e ff70 83be c956 06c0 af37 e6bf
000000f0: bd32 3d3f 12a8 ba3e e90d 6bbe d470 41be
00000100: 1910 78be ff1d 95be 5004 45be 7402 32be
00000110: 1348 c7bf 5c15 873e d9af 8cbe beef 8b3e
00000120: 8286 6b3e e16b 863e a369 47bf 302a 313e
00000130: 9123 403f 196a 2940 c5f4 b33e b796 f93e
00000140: 5933 433f 83cf 033f 3364 693f 0383 8c3f
00000150: 2784 73be de7b 793e 5d5b cc3e f8b4 55be
00000160: a870 29c0 e555 59bf 5542 d7be e75d cdbe
00000170: 9858 44be 4862 07bf 6cd3 c1be 2ddf 6f3f
00000180: 1095 91bf b9aa 45be d487 99be efc9 a63f
