save/mcarcontinues/critic.pkl (torch_old, 7348 bytes, 3 tensors)

weight f4 [100, 3]
000000 be b7 13 bc 40 1c 76 3e 2d 4d 81 be ab 53 06 be
       -0.0090159755 0.24034214 -0.25254193 -0.13117854
000010 2c 21 cb be 63 11 df 3b b7 78 9c 3e 00 05 ad be
       -0.39673746 0.0068074926 0.30560848 -0.33792877
000020 d1 69 06 be 32 77 ef 3e 38 3f 51 be 57 7a dc 3d
       -0.13126303 0.46770626 -0.20434272 0.10765522
000030 8e d2 b0 bd 2d 93 36 be 74 d2 96 3e 0c 2a a3 3d
       -0.0863391 -0.1782958 0.29457438 0.07967004
000040 df 44 d2 bf 0b df 35 bd 54 46 08 3e d6 c6 72 bd
       -1.6427268 -0.044402163 0.13308078 -0.059271656
000050 82 f1 43 3d d7 de e1 3d 4c 0d 04 3f d2 7c a0 3e
       0.04783774 0.110288315 0.5158279 0.3134523
000060 d5 51 a2 3e 47 b9 cd be f8 68 35 bd 12 78 9b 3e
       0.31703058 -0.40180418 -0.04428956 0.30365044
000070 4e f2 03 bf 82 a8 32 ba 70 3f 06 3e 8d 84 c3 bf
       -0.515416 -0.0006815271 0.13110137 -1.5274826
000080 22 c0 86 3c 5b 26 76 3e 18 24 6b 3e ae 11 98 bd
       0.016449038 0.24038069 0.22962987 -0.07425247
000090 da 53 47 bf aa 14 e8 40 4a 8d 30 3e 4c ff 5a bc
       -0.7786232 7.2525225 0.17241398 -0.013366532
0000a0 8a b1 4c bf b4 a1 56 bd e4 c8 05 bf 31 ed 0c 3b
       -0.79958403 -0.052400306 -0.5225966 0.0021503682
0000b0 da 2d 24 3e 9d c3 09 bc 0c d2 4b 3d eb b8 71 be
       0.16033116 -0.008408454 0.049760863 -0.23605697
0000c0 ec c3 47 be 1b fb 96 3d 68 ad 59 3f 59 9e 16 be
       -0.19508332 0.07372113 0.8503022 -0.14708842
0000d0 97 f8 19 be 0c a2 16 be b5 62 cc 3c d7 b7 ef be
       -0.15036236 -0.14710253 0.02494941 -0.46819946
0000e0 1c a5 92 be a7 5c 75 3e b5 90 58 bd c1 e7 5b bc
       -0.28641593 0.23961125 -0.05287238 -0.013421954
0000f0 3e 2a 5b be fd b9 4a be c0 69 67 bc d0 2d 7e 3e
       -0.21402833 -0.19797511 -0.014124334 0.24822164
000100 b8 5f 88 be 21 9d 25 3b ce 2b 83 be 23 f2 5a be
       -0.26635528 0.0025270658 -0.25619358 -0.2138143
000110 0c 78 30 3f 7d 1d ae bc d5 54 16 3b 32 bd 77 3e
       0.68933177 -0.021254295 0.0022938747 0.24193266
000120 88 7a 34 bf dc 8d c5 40 d8 32 10 3e ea 9e cb be
       -0.7049947 6.173567 0.14081895 -0.3976968
000130 74 75 9d 3e 1f 46 6a be 47 2d d0 bd 61 b4 9e 3d
       0.30753672 -0.22878312 -0.10164886 0.07749248
000140 85 e8 6c be c9 1a 23 bf 1e da bb 3f ca 92 48 3c
       -0.23135574 -0.63712746 1.4675939 0.0122420285
000150 b8 44 a9 3d 4a 3a d0 3e bd a3 72 3d 03 cc d6 3d
       0.0826506 0.4066947 0.059238184 0.10488131
000160 d2 ae fd 3e b0 e0 21 3d 55 64 4c 3e 20 42 b9 3e
       0.4954744 0.03952092 0.19960149 0.36183262
000170 29 24 87 3b 0e 6d 4e 3c 69 f8 a9 be 88 85 97 3e
       0.0041241837 0.012599243 -0.33197334 0.29594064
000180 55 b3 c4 3e 18 eb 79 be e7 f8 58 3d 3a fb 02 bf
       0.3841807 -0.24406087 0.052971747 -0.5116459
000190 46 73 06 3f 4c 6d 28 3d 1d c1 c4 be a9 1d 4b 3f
       0.52519643 0.04111986 -0.38428584 0.7934213
0001a0 17 07 69 3b 79 09 02 3e 2c 9d 30 3f 9d 78 26 3c
       0.0035557204 0.12698926 0.68989825 0.010160592
0001b0 65 3d 6b 3e 19 16 41 3c 21 23 4d bf 11 c7 b9 3e
       0.22972639 0.011785054 -0.8013173 0.36284688
0001c0 6c 88 89 3d 1e 41 3a 3e 29 c0 ee 3e b2 a1 8a bf
       0.067154735 0.18188903 0.46630982 -1.0830595
0001d0 a3 2c 2a bc 33 a6 ca be 4f 60 6a 3e a7 7a 6b 3c
       -0.010386619 -0.39579925 0.22888301 0.014372504
0001e0 12 c5 20 3e ab 5c 7b bd 36 29 45 3d 77 53 98 be
       0.15700176 -0.061367672 0.048135005 -0.2975118
0001f0 04 50 a1 3e 4f ab 9a be 34 59 ea 3e 0f 0e 55 be
       0.3150636 -0.30208823 0.45771182 -0.20806144
000200 1f 09 7f 3e f1 c4 18 3e 57 7b 0d c0 5d ad 9b 3b
       0.24905823 0.14918877 -2.210653 0.004750891
000210 81 67 5b be 10 b5 13 3e ff 68 2b 3f d3 4b 25 3f
       -0.21426202 0.14424539 0.66957086 0.64568824
000220 32 57 93 bd 2e d2 44 be f7 94 f4 3e 2f c4 1a 3e
       -0.071943656 -0.19220802 0.477699 0.151139
000230 30 be 84 be 5f b9 75 bc 02 aa 0b bd 65 7a 9f bf
       -0.25926352 -0.014997809 -0.03409768 -1.2459227
000240 c4 7f 4b 3e 71 be 35 be c7 35 86 3c 9e 3d f1 bd
       0.19872957 -0.17748429 0.016383065 -0.11779331
000250 04 ef 33 bf ef 8a 2f bd 6f 84 87 be 5e 2d ba 3a
       -0.70286584 -0.042857107 -0.26468226 0.0014204194
000260 e5 eb a4 bd e9 21 7c be 46 31 d7 bd d3 73 88 be
       -0.08052806 -0.2462231 -0.10507445 -0.26650867
000270 42 89 a7 3d 35 1c 53 3f a9 85 3b 3b 49 b5 06 bf
       0.08180477 0.82464916 0.0028613603 -0.5262037
000280 7c f1 af bc f8 7a 99 3b 9a 9e 84 bd 72 17 49 bd
       -0.021477453 0.0046838485 -0.06475563 -0.049094625
000290 6a f2 0e 3e d7 1e 86 be 65 f3 e1 bd a0 c1 01 be
       0.13959661 -0.26195404 -0.11032752 -0.12671518
0002a0 9b 1c ae be d0 33 ae 3d 12 23 2f 3f 3c 2b c5 3d
       -0.340062 0.08505976 0.6841289 0.09627387
0002b0 b3 56 13 3f 63 54 97 3d 3a dc 4c be 8f bd 9f be
       0.5755417 0.07389142 -0.20005885 -0.3119931
0002c0 0b 35 5f 3d 06 f2 97 be d3 60 a6 3d 1a c9 35 3c
       0.054493945 -0.29676837 0.081239365 0.01109531
0002d0 ab 2b cc 3d b5 52 69 3f 75 53 ab 3b c4 2a be be
       0.099692665 0.91141826 0.0052284547 -0.37142003
0002e0 d8 33 56 be 50 ce 25 3f 84 7e a9 3d f6 f6 29 3f
       -0.20918214 0.6476793 0.08276084 0.6639246
0002f0 73 26 04 3c 1d 51 08 bf b9 bd 54 be 47 1e 46 3e
       0.008065808 -0.5324877 -0.20775498 0.19347487
000300 e1 74 8b 3d 36 06 54 bf f8 79 33 bd 7a cf 0d be
       0.06809402 -0.8282198 -0.04381749 -0.13848677
000310 0a d6 c4 be 7c 38 41 bc 89 4c 87 be f5 1d a9 be
       -0.3844455 -0.011793252 -0.2642558 -0.33030668
000320 5e 39 ad 3d 1c 3a a1 3e 79 07 af 3b b1 ae 61 bd
       0.084582075 0.31489646 0.005341467 -0.05509824
000330 c3 f3 c4 be df 2d 08 3f 88 b5 8f b7 ac df 08 3f
       -0.38467225 0.53194994 -1.713146e-05 0.53466296
000340 24 72 92 bf ae 69 8a bb 4c 46 da 3d 27 a0 1f 3f
       -1.1441083 -0.004224024 0.10657939 0.6235375
000350 41 42 68 bd 8a c9 30 bd b4 06 98 3f 97 e0 3d bd
       -0.05670381 -0.043160953 1.1877046 -0.046356764
000360 fe f7 93 be 33 9d 79 3e bd 1a 31 bd 5d 3e 23 bf
       -0.2890014 0.24376373 -0.04323839 -0.63767034
000370 24 75 84 3f cb 7a 90 3b cd 97 06 bd 6e ed c3 be
       1.0348248 0.0044091693 -0.032859612 -0.38267082
000380 5b c2 a5 bc 84 db df 3d a0 e4 04 3f 3a 5b 15 3d
       -0.020234277 0.10930541 0.51911354 0.036463954
000390 f6 8d 8d 3e 55 02 69 bf 4b 72 aa 3d aa 27 4b be
       0.2764737 -0.91019183 0.08322581 -0.1983935
0003a0 63 d9 27 3e c9 58 8d bd a8 cd 48 bd 18 9a b7 be
       0.1639152 -0.069017 -0.049024254 -0.35859752
0003b0 90 b6 4f bd 02 7f 08 bf b4 a7 29 3f 6b 6e b1 3c
       -0.050711215 -0.533188 0.6627152 0.021659097
0003c0 a3 5a 19 bf 7f 2c 9f 3f c4 91 c7 3d 49 d5 99 be
       -0.59903926 1.2435454 0.097445995 -0.30045536
0003d0 7f 81 c3 3d 6b 34 f4 bd f5 c9 e4 3e a0 fd 56 bd
       0.09546184 -0.119240604 0.4468533 -0.05248797
0003e0 55 d9 38 3d 6b 0b b7 3e e8 24 b4 be 07 b5 de bc
       0.04512914 0.357509 -0.35184407 -0.02718593
0003f0 30 3a e3 3e f9 ef 0d 3d 3a 2f e0 bd 0b c9 eb 3d
       0.4438033 0.034652684 -0.10946508 0.11512955

bias f4 [100]
000000 5c 03 6b be 98 f0 e8 3e 16 7a 0a bf 95 05 4e 3e
       -0.229505 0.45496058 -0.5409254 0.20119317
000010 9a 27 b9 3e 16 ff 35 3f 0e e5 1b bf e1 96 98 3e
       0.36163026 0.71092355 -0.60896385 0.2980261
000020 6e e5 0e bf 79 90 39 bf d3 7b 1c 3f 63 69 c3 be
       -0.5581883 -0.7248607 0.6112644 -0.3816634
000030 92 dc 05 3f ba 0e 0a 3f db 53 0f bd 62 a9 0d bc
       0.5228969 0.5392872 -0.03499208 -0.008646341
000040 e4 d4 cd be 21 ff 01 bc 71 bb e4 bc 3d a1 33 bf
       -0.40201485 -0.007934363 -0.02792141 -0.70167905
000050 97 7f 9a 3e e5 74 39 bf 7f 49 98 3e 01 dc a5 3e
       0.30175468 -0.7244399 0.29743573 0.32394412
000060 f6 eb 24 bf df 9c 4d be 3d 32 e2 3e bb 1a 12 3f
       -0.6442255 -0.20079373 0.44178954 0.5707204
000070 bf 7f 1c bf 97 df 35 bf 3c c9 80 be 7d 17 4f 3e
       -0.61132425 -0.71044296 -0.2515353 0.20223804
000080 ce 01 1c be 49 5d 85 3e 3a 4e 2b 3f f1 4e 0a bf
       -0.15235063 0.26047733 0.6691624 -0.54026705
000090 39 40 f2 bd 9d 7d 5c 3e 6a 59 3b bf 4a c4 6f 3e
       -0.11828656 0.21532293 -0.7318331 0.23414722
0000a0 b9 c4 33 bf 8e e1 83 be 2d bd 1c 3e 57 3a 22 3f
       -0.7022205 -0.25758022 0.1530654 0.6337027
0000b0 3b 14 e8 3d 5c 91 2b 3e d9 d7 79 3c 82 1f ea 3e
       0.11331984 0.16754669 0.015249216 0.45727164
0000c0 e2 a8 40 bf 22 93 01 3e cf cd 51 bd b6 bb bf bd
       -0.75257695 0.12653783 -0.051221665 -0.09361975
0000d0 05 39 c1 be f0 63 20 be b9 cd 01 3e 24 a2 dd 3e
       -0.37738815 -0.15663123 0.12676133 0.43287766
0000e0 50 5b 2e 3e af c4 85 be 57 71 f2 3e 49 70 b7 3e
       0.1702702 -0.2612662 0.47352096 0.35827854
0000f0 60 68 04 bf 6f 34 c9 3e d0 7c ff be 44 73 1c be
       -0.51721764 0.39297816 -0.49899912 -0.15278345
000100 5d 2b 0b 3f 81 69 15 3f 04 25 59 3e 4b 83 fe bd
       0.5436304 0.5836411 0.21205527 -0.12427386
000110 ac 3c e6 3e d3 66 19 bf 59 ad 05 bf d0 5b 2f bf
       0.44968164 -0.5992252 -0.5221763 -0.6849947
000120 a6 9c a5 3e 30 e6 ae 3e 5c 48 2c 3f 02 fe 09 bf
       0.32346076 0.34159994 0.6729791 -0.5390321
000130 38 15 80 3e b8 a5 ce 3e 64 0e ee 3e 7f e7 94 3e
       0.2501619 0.40360808 0.46495354 0.29082868
000140 f7 d2 31 3f 3c b5 da 3d 7c 41 2f 3e 9f 04 95 be
       0.6946253 0.10679099 0.17114824 -0.29105088
000150 47 c0 79 3b b5 7e cc be 21 9e ba be 8d 80 98 be
       0.003810899 -0.3994042 -0.36448768 -0.29785576
000160 22 b0 a2 3e 2e 2b cd be 71 5d 31 3f 38 d4 3c 3f
       0.31775004 -0.40072006 0.69283205 0.7376132
000170 19 62 8e 3e 66 b2 29 bf 57 ac d9 bd 04 31 08 bf
       0.27809218 -0.6628784 -0.10628574 -0.5319979
000180 e9 14 dd 3c 21 16 1f 3f c2 fb 0d bf fe 2c 1d bf
       0.02698751 0.6214314 -0.55462277 -0.6139678

weight f4 [1, 100]
000000 b8 e6 65 3c 1a 75 e4 bd 7e f4 c3 3d 7b 2d 36 3d
       0.014032058 -0.11155148 0.095681176 0.044476967
000010 de 89 13 bd 51 56 65 be 16 d4 78 3e 3e 2a 3b bd
       -0.036020152 -0.22396208 0.24299654 -0.045694582
000020 e9 03 87 3e f0 24 5c 3e 28 51 1b be 3a 67 05 3e
       0.2637017 0.21498466 -0.15167677 0.13027659
000030 13 23 a4 be 94 40 61 be 22 38 9e be 8e 64 66 bc
       -0.3205801 -0.21997291 -0.309022 -0.01406206
000040 85 b7 e7 ba af 1a 90 bd 6b b2 06 bd db 78 87 3e
       -0.0017678594 -0.070363395 -0.032884996 0.26459393
000050 ed 2b 74 be 11 7d 6c 3e b9 58 ef ba a3 09 f0 bc
       -0.23844881 0.23094584 -0.0018260694 -0.02930147
000060 56 08 7c 3e 4a 76 84 bd 68 17 57 bd 4e d6 70 be
       0.24612555 -0.06467874 -0.052512556 -0.23519251
000070 5c 8a 25 3e 75 17 4f 3e e3 f9 61 3e 2f 34 3a bc
       0.16166061 0.20223792 0.2206798 -0.011364981
000080 91 29 54 3e a2 2b 28 be c6 2c 42 be f5 14 75 3e
       0.20718981 -0.16422895 -0.18962392 0.23933776
000090 b4 01 0c bd 98 8e 91 3c bb 74 3e 3e 9f 06 56 be
       -0.03418131 0.01776819 0.18599217 -0.20900963
0000a0 60 30 75 3e 1e 55 9e bc 95 68 50 3e eb ad 3c be
       0.23944235 -0.019327696 0.20352395 -0.1842572
0000b0 48 34 96 3c f6 a2 9b 3d ac 3e c3 3d 06 0e d5 3c
       0.018335477 0.07599442 0.09533438 0.026007663
0000c0 eb 40 27 3e 08 8e aa bd 5e b5 41 bd 00 65 83 bd
       0.16333358 -0.083278716 -0.047292106 -0.064157486
0000d0 af 0f 6a 3e 82 51 5e be 0e a6 a0 bc 1b f1 31 bd
       0.22857545 -0.2171078 -0.019610431 -0.043442827
0000e0 69 9e 24 3c 97 9b 36 3e 32 fb 28 be bc c2 0e be
       0.010047534 0.1783279 -0.16502073 -0.13941473
0000f0 f2 b6 7f 3e 92 40 43 bc 81 d0 ea 3d db 8f 21 be
       0.24972132 -0.01191725 0.1146555 -0.15777533
000100 3a 64 29 be e9 43 79 be 24 4c 81 be 80 c6 26 3e
       -0.1654214 -0.24342312 -0.25253403 0.16286659
000110 0d 39 51 be 69 c3 88 3e 1f 24 dc 3d d0 68 6f 3e
       -0.2043192 0.26711586 0.10749077 0.23379827
000120 4c 49 57 be 88 be 81 be e3 86 7e be d8 3e 76 3e
       -0.21024054 -0.25340676 -0.24856143 0.2404741
000130 2c 43 8f bc e3 4e 74 be 2a 9f 88 bd 99 b4 5e be
       -0.017488085 -0.23858218 -0.06670983 -0.2174858
000140 98 c8 55 be f0 35 01 be dd 03 9c 3d ab e3 83 3e
       -0.20877302 -0.12618232 0.07617924 0.25759634
000150 08 3c 8c 3e 44 b3 35 3e b6 27 a4 3d 75 8f 3e 3e
       0.2738955 0.17744166 0.08015387 0.18609412
000160 ff 67 b8 bd 4c e8 b3 3c 18 2b 4c be be 3e 62 be
       -0.09004211 0.021961354 -0.19938314 -0.22094247
000170 51 23 b4 bd 14 76 4f 3e 6a 14 12 bd e5 c9 7d 3e
       -0.087957986 0.20259887 -0.035664 0.24784048
000180 d2 0e 11 3e 7c ee 49 be 96 84 1a 3f 77 9d 46 3e
       0.1416581 -0.19719881 0.6035856 0.19396006
